image_classification/scripts/training/outputs/2024_02_03_00_31_38/quantized_models/quantized_model.tflite (tflite, 415208 bytes, 53 tensors)

mobilenet_v2_alpha_0.25/conv2d/Conv2D i1 [8, 3, 3, 3]
43 -71 -127 41 81 -68 62 -1
0 -14 -100 36 113 -86 -92 -101
103 22 38 110 -21 -79 27 70
-108 82 100 -16 -73 6 -43 7
74 -47 -80 -84 -83 -54 22 -107
-73 -46 -94 -100 -69 16 89 -107
68 -114 -32 -96 127 -117 -40 -52
37 28 -2 127 29 70 -100 8
118 -79 -113 34 116 -85 -99 112
-63 -49 -18 -115 -108 -68 -116 80
102 -10 60 -81 -78 -76 -116 -9
-44 39 55 -99 59 34 -111 74
51 -66 100 96 -95 6 71 -26
-127 -9 17 -65 -124 -97 61 94
92 79 127 -58 121 106 -48 -36
-34 112 36 59 0 64 116 78
45 -58 27 15 -112 46 -41 52
13 13 -17 104 45 62 -52 47
-52 -67 -127 4 122 36 -70 62
8 117 72 102 -97 -112 -22 67
109 112 65 20 -106 122 -52 24
-48 29 -52 33 -127 -95 33 28
-40 25 4 -73 88 -91 -71 2
-51 83 35 -68 -110 97 104 46
-68 49 -87 85 65 -34 122 104
90 79 -5 -22 -1 16 -127 -118
111 91 37 -32 -50 -7 -22 83
00000000: 2bb9 8129 51bc 3eff 00f2 9c24 71aa a49b
00000010: 6716 266e ebb1 1b46 9452 64f0 b706 d507
00000020: 4ad1 b0ac adca 1695 b7d2 a29c bb10 5995
00000030: 448e e0a0 7f8b d8cc 251c fe7f 1d46 9c08
00000040: 76b1 8f22 74ab 9d70 c1cf ee8d 94bc 8c50
00000050: 66f6 3caf b2b4 8cf7 d427 379d 3b22 914a
00000060: 33be 6460 a106 47e6 81f7 11bf 849f 3d5e
00000070: 5c4f 7fc6 796a d0dc de70 243b 0040 744e
00000080: 2dc6 1b0f 902e d734 0d0d ef68 2d3e cc2f
00000090: ccbd 8104 7a24 ba3e 0875 4866 9f90 ea43
000000a0: 6d70 4114 967a cc18 d01d cc21 81a1 211c
000000b0: d819 04b7 58a5 b902 cd53 23bc 9261 682e
000000c0: bc31 a955 41de 7a68 5a4f fbea ff10 818a
000000d0: 6f5b 25e0 cef9 ea53

mobilenet_v2_alpha_0.25/batch_normalization_1/FusedBatchNormV3;mobilenet_v2_alpha_0.25/depthwise_conv2d/depthwise;mobilenet_v2_alpha_0.25/conv2d_11/Conv2D;mobilenet_v2_alpha_0.25/batch_normalization_17/FusedBatchNormV3 i1 [1, 3, 3, 8]
57 -4 127 -77 62 114 117 65
-46 13 -70 61 -103 10 56 98
-49 -88 -17 124 -98 -109 20 115
127 26 33 100 90 113 -127 -1
23 50 77 127 -25 109 10 -19
-30 45 -99 -99 127 -127 8 127
-8 98 -88 -120 -40 53 -83 82
47 115 -77 105 -122 87 86 -93
110 127 52 20 34 106 -89 -101
00000000: 39fc 7fb3 3e72 7541 d20d ba3d 990a 3862
00000010: cfa8 ef7c 9e93 1473 7f1a 2164 5a71 81ff
00000020: 1732 4d7f e76d 0aed e22d 9d9d 7f81 087f
00000030: f862 a888 d835 ad52 2f73 b369 8657 56a3
00000040: 6e7f 3414 226a a79b

mobilenet_v2_alpha_0.25/conv2d_1/Conv2D i1 [8, 1, 1, 8]
85 -75 126 -27 -41 -127 -3 72
37 -8 122 111 127 -57 -67 -60
-127 51 -78 76 73 -44 56 13
-44 -121 76 -113 126 -105 63 -127
3 120 28 -85 -127 40 -87 -85
-53 -127 -100 -96 -11 -20 -113 -20
-127 60 114 -31 46 56 90 -84
-127 -11 -118 -100 17 -53 125 99
00000000: 55b5 7ee5 d781 fd48 25f8 7a6f 7fc7 bdc4
00000010: 8133 b24c 49d4 380d d487 4c8f 7e97 3f81
00000020: 0378 1cab 8128 a9ab cb81 9ca0 f5ec 8fec
00000030: 813c 72e1 2e38 5aac 81f5 8a9c 11cb 7d63

mobilenet_v2_alpha_0.25/conv2d_2/Conv2D i1 [48, 1, 1, 8]
66 -127 33 76 48 103 -99 28
-44 -127 23 -104 -12 85 -99 -80
18 88 -118 -127 17 69 -78 66
-15 78 7 109 -31 -101 127 -30
-66 103 -114 94 -20 53 9 -127
-19 -36 33 16 -94 70 0 -127
37 -36 -99 -127 20 106 97 65
63 -51 -44 15 -120 113 -127 115
-57 -55 -37 3 -1 103 -86 -127
121 -69 -9 47 -114 77 -127 22
44 127 -66 -97 -35 112 -81 77
-58 -34 -62 50 16 -42 63 127
127 58 1 117 7 26 -125 -2
-114 110 127 7 5 64 90 -45
18 -103 45 -98 107 -86 -127 24
-66 94 -127 94 77 93 113 34
62 127 -114 -58 127 57 -121 -120
-6 -67 109 -127 123 -33 20 104
-10 -102 -127 64 58 -44 -10 106
127 64 -117 69 -126 36 -88 -11
92 -33 60 -97 -47 81 127 99
-114 -38 -39 86 14 127 53 11
-127 41 96 -92 -104 -53 50 20
-3 47 24 86 -96 -120 -34 127
23 -60 -74 102 -117 -80 -36 127
-26 41 127 -82 -67 -8 70 -28
64 -105 -29 -37 -127 52 -18 -34
120 -14 109 -60 53 127 102 95
8 -33 30 33 -116 -35 -127 94
127 79 -65 123 79 -115 -79 71
112 -4 -70 80 -121 -127 75 -92
-105 127 -41 -52 -49 13 -101 -67
00000000: 4281 214c 3067 9d1c d481 1798 f455 9db0
00000010: 1258 8a81 1145 b242 f14e 076d e19b 7fe2
00000020: be67 8e5e ec35 0981 eddc 2110 a246 0081
00000030: 25dc 9d81 146a 6141 3fcd d40f 8871 8173
00000040: c7c9 db03 ff67 aa81 79bb f72f 8e4d 8116
00000050: 2c7f be9f dd70 af4d c6de c232 10d6 3f7f
00000060: 7f3a 0175 071a 83fe 8e6e 7f07 0540 5ad3
00000070: 1299 2d9e 6baa 8118 be5e 815e 4d5d 7122
00000080: 3e7f 8ec6 7f39 8788 fabd 6d81 7bdf 1468
00000090: f69a 8140 3ad4 f66a 7f40 8b45 8224 a8f5
000000a0: 5cdf 3c9f d151 7f63 8eda d956 0e7f 350b
000000b0: 8129 60a4 98cb 3214 fd2f 1856 a088 de7f
000000c0: 17c4 b666 8bb0 dc7f e629 7fae bdf8 46e4
000000d0: 4097 e3db 8134 eede 78f2 6dc4 357f 665f
000000e0: 08df 1e21 8cdd 815e 7f4f bf7b 4f8d b147
000000f0: 70fc ba50 8781 4ba4 977f d7cc cf0d 9bbd

mobilenet_v2_alpha_0.25/batch_normalization_4/FusedBatchNormV3;mobilenet_v2_alpha_0.25/depthwise_conv2d_1/depthwise;mobilenet_v2_alpha_0.25/depthwise_conv2d_6/depthwise;mobilenet_v2_alpha_0.25/batch_normalization_19/FusedBatchNormV3 i1 [1, 3, 3, 48]
83 -1 -34 115 36 -87 41 -79
-127 93 111 -83 113 105 -19 105
52 -9 8 -51 -127 -88 3 -18
-44 122 -64 80 96 -109 -102 -64
40 62 101 -71 44 58 -71 75
-14 121 68 127 -107 -127 -93 127
77 -127 -25 -127 86 98 -64 -76
-45 50 -11 44 41 -103 -104 -124
-120 -105 -65 2 77 -16 7 34
-127 -58 -37 -113 -22 -43 -127 116
107 -78 -15 28 127 0 103 96
-5 -75 -62 13 -3 -69 46 32
-127 80 -13 82 44 7 121 90
-57 -69 34 112 127 -14 -111 80
126 -127 28 126 11 26 -127 86
97 76 76 70 -126 -53 -54 -40
79 118 44 -127 -111 41 -32 -82
113 80 108 -5 -83 21 -8 75
98 -118 -127 125 -71 -110 -20 38
-102 69 -101 46 -90 80 -42 67
-33 11 -3 15 125 71 119 67
-49 -91 26 -127 -108 -127 -56 -2
21 105 -127 -107 4 -1 39 -72
-127 -6 -42 -60 31 68 -107 -110
-87 -92 -28 -51 -101 -36 -41 55
-32 -78 127 -127 21 -67 -63 87
12 19 -92 -127 74 -37 -52 -51
34 127 -127 -4 -127 93 43 18
75 51 -21 -100 -73 127 -127 127
102 29 19 121 51 -77 114 -36
-121 8 -71 99 -36 -127 -45 59
27 16 48 -81 -55 47 127 -81
00000000: 53ff de73 24a9 29b1 815d 6fad 7169 ed69
00000010: 34f7 08cd 81a8 03ee d47a c050 6093 9ac0
00000020: 283e 65b9 2c3a b94b f279 447f 9581 a37f
00000030: 4d81 e781 5662 c0b4 d332 f52c 2999 9884
00000040: 8897 bf02 4df0 0722 81c6 db8f ead5 8174
00000050: 6bb2 f11c 7f00 6760 fbb5 c20d fdbb 2e20
00000060: 8150 f352 2c07 795a c7bb 2270 7ff2 9150
00000070: 7e81 1c7e 0b1a 8156 614c 4c46 82cb cad8
00000080: 4f76 2c81 9129 e0ae 7150 6cfb ad15 f84b
00000090: 628a 817d b992 ec26 9a45 9b2e a650 d643
000000a0: df0b fd0f 7d47 7743 cfa5 1a81 9481 c8fe
000000b0: 1569 8195 04ff 27b8 81fa d6c4 1f44 9592
000000c0: a9a4 e4cd 9bdc d737 e0b2 7f81 15bd c157
000000d0: 0c13 a481 4adb cccd 227f 81fc 815d 2b12
000000e0: 4b33 eb9c b77f 817f 661d 1379 33b3 72dc
000000f0: 8708 b963 dc81 d33b 1b10 30af c92f 7faf

mobilenet_v2_alpha_0.25/conv2d_3/Conv2D i1 [8, 1, 1, 48]
117 -74 49 114 105 11 32 110
-16 112 119 -7 -43 -76 -42 27
26 -5 -23 78 46 -78 106 100
-127 -10 -64 81 55 40 -13 -62
55 44 75 -85 -78 77 -125 -60
-4 34 20 27 15 -43 -77 -3
-124 32 54 -12 52 68 -82 3
43 -111 -126 95 -60 1 92 -120
-80 -72 45 -6 17 -127 -78 -54
127 -36 -90 89 12 -87 51 46
-3 111 -61 -11 56 44 116 8
-111 -75 -25 -58 -1 -21 67 5
-47 124 96 68 52 -50 35 -91
23 100 -127 56 -107 1 -21 58
23 -11 122 86 17 67 -12 -110
-80 21 -2 -58 123 119 -99 74
-21 -95 26 115 -47 68 -103 -113
5 -127 7 51 -93 -70 -54 11
-87 -97 -4 66 38 -25 -61 -11
-24 -107 -88 -122 -65 -2 -106 109
69 -47 -6 77 -101 36 -108 -101
-3 -103 -35 -105 68 86 6 119
-21 -110 -10 57 16 -76 15 -8
112 1 -42 -29 -109 -13 10 -127
59 -81 57 54 115 19 -8 127
-116 -77 -53 59 15 107 101 -77
-102 11 68 -68 -89 -87 87 121
-52 90 43 125 56 39 -31 -123
-39 -19 119 -103 -25 -111 36 93
78 -69 5 70 56 -69 70 -106
77 99 44 -75 -52 56 45 100
-76 86 58 -64 9 -112 -64 -122
00000000: 75b6 3172 690b 206e f070 77f9 d5b4 d61b
00000010: 1afb e94e 2eb2 6a64 81f6 c051 3728 f3c2
00000020: 372c 4bab b24d 83c4 fc22 141b 0fd5 b3fd
00000030: 8420 36f4 3444 ae03 2b91 825f c401 5c88
00000040: b0b8 2dfa 1181 b2ca 7fdc a659 0ca9 332e
00000050: fd6f c3f5 382c 7408 91b5 e7c6 ffeb 4305
00000060: d17c 6044 34ce 23a5 1764 8138 9501 eb3a
00000070: 17f5 7a56 1143 f492 b015 fec6 7b77 9d4a
00000080: eba1 1a73 d144 998f 0581 0733 a3ba ca0b
00000090: a99f fc42 26e7 c3f5 e895 a886 bffe 966d
000000a0: 45d1 fa4d 9b24 949b fd99 dd97 4456 0677
000000b0: eb92 f639 10b4 0ff8 7001 d6e3 93f3 0a81
000000c0: 3baf 3936 7313 f87f 8cb3 cb3b 0f6b 65b3
000000d0: 9a0b 44bc a7a9 5779 cc5a 2b7d 3827 e185
000000e0: d9ed 7799 e791 245d 4ebb 0546 38bb 4696
000000f0: 4d63 2cb5 cc38 2d64 b456 3ac0 0990 c086

mobilenet_v2_alpha_0.25/conv2d_4/Conv2D i1 [48, 1, 1, 8]
-17 62 -127 107 -91 88 105 -13
8 -127 -73 -45 -59 123 78 99
-1 38 14 -24 -46 -114 -127 -46
-118 -126 -116 -44 13 -54 127 -92
-37 97 16 120 127 -58 109 -34
24 -26 127 25 11 86 -67 -100
105 -51 102 -127 4 -34 12 68
-53 2 -67 127 62 -59 -18 -103
-123 -116 26 -90 127 113 -96 -27
-103 77 57 74 69 59 -127 -22
113 -63 -127 -67 -88 42 -47 -92
-97 127 -108 42 103 -85 -85 -57
127 14 60 -17 35 43 112 -120
85 53 -92 -4 -49 -11 -127 -2
-25 7 56 -11 -89 -75 127 -104
-126 109 15 -90 -127 112 58 -84
-76 95 -14 -28 -114 90 -117 -127
89 -93 106 80 -54 -109 127 9
-127 -91 -38 90 31 -48 -101 34
88 76 -108 -127 9 83 -70 -126
-17 -127 -49 -8 -80 -92 -117 -20
-30 79 73 -127 108 74 42 -112
115 62 -71 32 -97 -127 119 59
125 -127 17 21 77 62 6 121
-127 -45 -46 -34 17 86 -121 47
31 127 -49 99 107 88 69 -67
-127 33 -52 94 41 69 1 106
33 70 -127 99 124 -31 -7 29
106 127 -120 -119 -81 7 -100 44
-19 59 34 7 72 -127 -92 90
127 38 -32 -113 118 -63 80 36
-31 -1 -127 -5 -30 -4 125 -4
00000000: ef3e 816b a558 69f3 0881 b7d3 c57b 4e63
00000010: ff26 0ee8 d28e 81d2 8a82 8cd4 0dca 7fa4
00000020: db61 1078 7fc6 6dde 18e6 7f19 0b56 bd9c
00000030: 69cd 6681 04de 0c44 cb02 bd7f 3ec5 ee99
00000040: 858c 1aa6 7f71 a0e5 994d 394a 453b 81ea
00000050: 71c1 81bd a82a d1a4 9f7f 942a 67ab abc7
00000060: 7f0e 3cef 232b 7088 5535 a4fc cff5 81fe
00000070: e707 38f5 a7b5 7f98 826d 0fa6 8170 3aac
00000080: b45f f2e4 8e5a 8b81 59a3 6a50 ca93 7f09
00000090: 81a5 da5a 1fd0 9b22 584c 9481 0953 ba82
000000a0: ef81 cff8 b0a4 8bec e24f 4981 6c4a 2a90
000000b0: 733e b920 9f81 773b 7d81 1115 4d3e 0679
000000c0: 81d3 d2de 1156 872f 1f7f cf63 6b58 45bd
000000d0: 8121 cc5e 2945 016a 2146 8163 7ce1 f91d
000000e0: 6a7f 8889 af07 9c2c ed3b 2207 4881 a45a
000000f0: 7f26 e08f 76c1 5024 e1ff 81fb e2fc 7dfc

mobilenet_v2_alpha_0.25/batch_normalization_7/FusedBatchNormV3;mobilenet_v2_alpha_0.25/depthwise_conv2d_2/depthwise;mobilenet_v2_alpha_0.25/depthwise_conv2d_6/depthwise;mobilenet_v2_alpha_0.25/batch_normalization_19/FusedBatchNormV3 i1 [1, 3, 3, 48]
-99 -31 -42 51 56 -72 30 125
-43 -60 21 -85 127 106 74 -69
124 127 37 -47 73 -127 -84 -2
-68 92 -118 -47 -47 107 48 -64
45 -54 13 35 -78 -118 39 17
88 58 -9 52 -53 85 0 90
-111 45 127 -33 -51 41 41 93
108 25 -102 -56 114 -127 122 92
-127 -61 48 1 54 124 78 96
75 -127 126 -75 -61 -86 52 -127
-127 -127 -17 84 127 -56 123 88
52 -127 28 16 123 74 76 -27
-127 -2 30 93 -95 -36 -110 -101
9 40 118 127 -6 53 95 -85
110 73 -127 -12 13 -88 20 62
91 -43 82 48 -99 -127 -112 -20
-44 84 -56 -105 15 30 -127 -45
-58 -95 -124 127 22 89 -62 23
-90 103 -124 -112 -77 30 -127 127
41 -69 110 119 -106 -12 22 -82
74 -83 -96 121 -24 28 -127 127
51 115 35 -43 15 49 -79 117
-94 22 107 43 -123 127 -105 104
111 -33 32 14 85 -127 127 -40
63 -102 -96 -20 -122 -22 -77 -15
-103 -70 79 63 26 73 68 127
-70 77 124 -29 -46 -124 37 -51
-114 -31 -101 60 9 72 127 -80
68 57 72 12 -127 67 -99 125
-97 -24 14 -121 -106 106 75 82
90 -45 61 -14 127 37 -4 55
-52 119 -37 -73 37 118 7 14
00000000: 9de1 d633 38b8 1e7d d5c4 15ab 7f6a 4abb
00000010: 7c7f 25d1 4981 acfe bc5c 8ad1 d16b 30c0
00000020: 2dca 0d23 b28a 2711 583a f734 cb55 005a
00000030: 912d 7fdf cd29 295d 6c19 9ac8 7281 7a5c
00000040: 81c3 3001 367c 4e60 4b81 7eb5 c3aa 3481
00000050: 8181 ef54 7fc8 7b58 3481 1c10 7b4a 4ce5
00000060: 81fe 1e5d a1dc 929b 0928 767f fa35 5fab
00000070: 6e49 81f4 0da8 143e 5bd5 5230 9d81 90ec
00000080: d454 c897 0f1e 81d3 c6a1 847f 1659 c217
00000090: a667 8490 b31e 817f 29bb 6e77 96f4 16ae
000000a0: 4aad a079 e81c 817f 3373 23d5 0f31 b175
000000b0: a216 6b2b 857f 9768 6fdf 200e 5581 7fd8
000000c0: 3f9a a0ec 86ea b3f1 99ba 4f3f 1a49 447f
000000d0: ba4d 7ce3 d284 25cd 8ee1 9b3c 0948 7fb0
000000e0: 4439 480c 8143 9d7d 9fe8 0e87 966a 4b52
000000f0: 5ad3 3df2 7f25 fc37 cc77 dbb7 2576 070e

mobilenet_v2_alpha_0.25/conv2d_5/Conv2D i1 [8, 1, 1, 48]
-78 -66 52 8 34 116 -8 19
-7 -34 -103 113 124 51 -55 -3
-123 102 67 113 -69 18 26 -103
4 113 -85 -79 86 -62 23 -122
117 42 56 -33 8 60 -71 119
46 56 79 26 10 -76 -107 -127
84 -79 85 69 70 118 -6 26
27 111 37 28 95 96 -90 -127
-34 -71 25 -117 3 57 4 -70
-111 84 -64 117 -79 11 -21 51
0 52 -41 -112 -69 62 54 -6
126 60 -25 -37 68 13 118 -31
82 24 -26 -127 98 16 -25 -13
121 126 60 114 -16 103 -75 25
-109 -120 -113 -55 83 -49 -106 109
74 -22 52 -89 -113 88 82 -104
-105 125 -43 -8 -104 81 -82 77
-12 -3 -104 -102 -71 64 4 -116
20 -85 -76 -83 122 -82 56 11
28 -47 -49 15 18 81 45 -59
55 -96 39 80 -124 96 102 93
94 -9 54 -41 103 96 121 72
-13 -65 44 71 84 67 127 -109
-113 -103 -125 -54 114 -112 -3 -31
62 -73 -4 -99 -9 96 -22 -76
61 116 -72 -82 -78 -13 -106 127
39 -84 110 -9 -75 18 43 -69
-99 -117 -110 3 123 5 -2 33
67 -42 74 47 -28 -91 85 46
2 -96 -125 -73 -21 26 34 -125
127 114 57 105 86 114 -24 -62
-69 40 -43 9 -115 -105 -127 -114
00000000: b2be 3408 2274 f813 f9de 9971 7c33 c9fd
00000010: 8566 4371 bb12 1a99 0471 abb1 56c2 1786
00000020: 752a 38df 083c b977 2e38 4f1a 0ab4 9581
00000030: 54b1 5545 4676 fa1a 1b6f 251c 5f60 a681
00000040: deb9 198b 0339 04ba 9154 c075 b10b eb33
00000050: 0034 d790 bb3e 36fa 7e3c e7db 440d 76e1
00000060: 5218 e681 6210 e7f3 797e 3c72 f067 b519
00000070: 9388 8fc9 53cf 966d 4aea 34a7 8f58 5298
00000080: 977d d5f8 9851 ae4d f4fd 989a b940 048c
00000090: 14ab b4ad 7aae 380b 1cd1 cf0f 1251 2dc5
000000a0: 37a0 2750 8460 665d 5ef7 36d7 6760 7948
000000b0: f3bf 2c47 5443 7f93 8f99 83ca 7290 fde1
000000c0: 3eb7 fc9d f760 eab4 3d74 b8ae b2f3 967f
000000d0: 27ac 6ef7 b512 2bbb 9d8b 9203 7b05 fe21
000000e0: 43d6 4a2f e4a5 552e 02a0 83b7 eb1a 2283
000000f0: 7f72 3969 5672 e8c2 bb28 d509 8d97 818e

mobilenet_v2_alpha_0.25/conv2d_6/Conv2D i1 [48, 1, 1, 8]
-98 -28 -95 93 64 -127 -78 122
120 56 -52 123 -60 43 7 127
-22 83 108 87 127 80 -8 102
-102 -127 -54 -106 122 -44 -7 -98
31 -124 55 10 92 98 -127 73
74 29 127 -78 -83 -88 -121 15
-123 127 -32 122 35 -51 -80 44
93 22 -112 -127 -54 -118 -127 87
64 -52 -99 101 34 65 127 -105
52 105 8 -76 -5 61 127 37
-75 -94 63 51 8 -91 125 127
127 126 55 122 2 100 -84 -16
124 32 88 64 -48 -127 108 -107
127 -66 91 6 21 -31 34 -125
121 -85 -127 83 3 58 99 100
-21 -127 -75 -55 -47 -23 1 2
-90 -76 116 -84 -127 19 76 99
-118 -127 -15 -43 -115 -76 -95 -19
-102 65 -127 -70 97 -115 77 102
-42 -104 127 44 -66 28 5 -88
-127 20 -41 -58 -31 -14 -18 59
14 72 -127 89 -88 33 -47 74
-127 -54 -2 -27 10 13 49 109
-86 75 20 125 127 2 -42 106
14 59 127 34 27 77 -116 98
-125 56 4 66 107 -20 127 -64
-127 -5 81 54 118 -77 -3 -100
-47 -68 -122 44 127 -22 -15 -41
-21 -1 12 44 -4 -82 -91 127
-11 127 -62 -3 -124 36 -84 69
127 28 -68 41 76 -105 127 -55
44 -101 -127 102 -4 48 -7 58
00000000: 9ee4 a15d 4081 b27a 7838 cc7b c42b 077f
00000010: ea53 6c57 7f50 f866 9a81 ca96 7ad4 f99e
00000020: 1f84 370a 5c62 8149 4a1d 7fb2 ada8 870f
00000030: 857f e07a 23cd b02c 5d16 9081 ca8a 8157
00000040: 40cc 9d65 2241 7f97 3469 08b4 fb3d 7f25
00000050: b5a2 3f33 08a5 7d7f 7f7e 377a 0264 acf0
00000060: 7c20 5840 d081 6c95 7fbe 5b06 15e1 2283
00000070: 79ab 8153 033a 6364 eb81 b5c9 d1e9 0102
00000080: a6b4 74ac 8113 4c63 8a81 f1d5 8db4 a1ed
00000090: 9a41 81ba 618d 4d66 d698 7f2c be1c 05a8
000000a0: 8114 d7c6 e1f2 ee3b 0e48 8159 a821 d14a
000000b0: 81ca fee5 0a0d 316d aa4b 147d 7f02 d66a
000000c0: 0e3b 7f22 1b4d 8c62 8338 0442 6bec 7fc0
000000d0: 81fb 5136 76b3 fd9c d1bc 862c 7fea f1d7
000000e0: ebff 0c2c fcae a57f f57f c2fd 8424 ac45
000000f0: 7f1c bc29 4c97 7fc9 2c9b 8166 fc30 f93a

mobilenet_v2_alpha_0.25/batch_normalization_10/FusedBatchNormV3;mobilenet_v2_alpha_0.25/depthwise_conv2d_3/depthwise;mobilenet_v2_alpha_0.25/depthwise_conv2d_6/depthwise;mobilenet_v2_alpha_0.25/batch_normalization_19/FusedBatchNormV3 i1 [1, 3, 3, 48]
25 -84 58 -127 24 11 107 -34
92 127 -56 14 -18 49 -96 -9
-67 -55 39 -122 59 -105 127 24
-116 127 12 -21 -62 -46 86 -31
-75 29 127 87 62 -101 -17 -51
-115 -79 -87 101 -61 -70 -127 -73
68 -42 12 16 127 -12 -4 -124
16 -66 -51 -125 7 -127 13 127
30 37 -127 74 61 87 -46 99
-68 -109 -68 -66 126 108 -50 -111
-44 -121 -12 72 127 -127 -71 121
-37 23 -83 121 96 -33 91 -60
81 -65 73 38 -104 -101 -63 86
68 -41 45 -42 -44 -89 -61 121
-126 -54 40 -49 105 63 111 93
27 125 -97 -127 -81 -3 -127 51
55 53 42 -54 -104 43 48 92
55 56 -127 123 -73 16 79 99
10 80 119 0 -56 33 127 32
55 -119 100 0 30 -110 115 -50
40 127 -84 127 127 -29 26 -127
34 68 -91 57 58 -68 -118 112
119 126 75 -2 -104 27 -43 -35
-41 34 -26 49 97 44 43 4
-98 26 44 113 55 104 28 -81
63 37 -11 79 -37 -76 -99 -56
-121 -6 59 112 -117 -78 45 108
-65 8 -3 -16 -127 57 -14 -18
-23 2 50 54 -61 31 127 -35
-11 -106 -52 34 -111 127 78 78
-127 -93 -119 121 113 85 -63 2
127 66 127 82 -106 82 119 13
00000000: 19ac 3a81 180b 6bde 5c7f c80e ee31 a0f7
00000010: bdc9 2786 3b97 7f18 8c7f 0ceb c2d2 56e1
00000020: b51d 7f57 3e9b efcd 8db1 a965 c3ba 81b7
00000030: 44d6 0c10 7ff4 fc84 10be cd83 0781 0d7f
00000040: 1e25 814a 3d57 d263 bc93 bcbe 7e6c ce91
00000050: d487 f448 7f81 b979 db17 ad79 60df 5bc4
00000060: 51bf 4926 989b c156 44d7 2dd6 d4a7 c379
00000070: 82ca 28cf 693f 6f5d 1b7d 9f81 affd 8133
00000080: 3735 2aca 982b 305c 3738 817b b710 4f63
00000090: 0a50 7700 c821 7f20 3789 6400 1e92 73ce
000000a0: 287f ac7f 7fe3 1a81 2244 a539 3abc 8a70
000000b0: 777e 4bfe 981b d5dd d722 e631 612c 2b04
000000c0: 9e1a 2c71 3768 1caf 3f25 f54f dbb4 9dc8
000000d0: 87fa 3b70 8bb2 2d6c bf08 fdf0 8139 f2ee
000000e0: e902 3236 c31f 7fdd f596 cc22 917f 4e4e
000000f0: 81a3 8979 7155 c102 7f42 7f52 9652 770d

mobilenet_v2_alpha_0.25/conv2d_7/Conv2D i1 [8, 1, 1, 48]
125 -109 110 117 -118 33 15 127
51 -62 116 118 -86 -104 -32 3
-43 -104 -93 -89 50 71 78 115
81 33 46 57 -33 117 32 11
71 97 126 76 49 48 90 -50
-5 -44 -42 -115 90 -115 -75 12
102 95 -27 -43 94 101 -38 -33
73 121 87 -58 17 -68 18 -58
127 6 -51 -64 -24 72 98 71
-84 13 17 -28 92 -121 17 -91
50 12 -95 -102 44 21 67 -55
122 -16 -30 -53 -28 -114 -94 -25
-22 -98 -21 -55 105 22 -127 -79
-113 -29 17 -111 82 -33 -78 90
-120 40 -124 -6 46 71 -125 -4
121 89 -43 -47 -111 -111 102 19
40 -71 -74 -29 92 99 -81 -101
69 -62 49 -100 9 103 123 -102
-107 -108 -46 -122 15 93 40 -52
24 86 -35 110 19 59 43 -13
67 5 -98 35 -93 -123 97 -127
74 -54 -99 -24 82 87 -75 -39
-63 -30 46 29 108 96 31 38
-16 -63 -1 -6 1 123 2 99
-109 106 89 -102 40 74 103 118
-103 33 -31 34 -63 11 -24 68
80 57 -80 -28 27 116 -49 53
-90 87 -114 -26 -60 37 107 -57
-124 -21 -61 -119 -4 -6 -92 82
-109 47 76 32 -113 -116 -85 127
-112 91 12 26 -61 37 -126 44
-103 -18 -30 74 31 -30 43 -99
00000000: 7d93 6e75 8a21 0f7f 33c2 7476 aa98 e003
00000010: d598 a3a7 3247 4e73 5121 2e39 df75 200b
00000020: 4761 7e4c 3130 5ace fbd4 d68d 5a8d b50c
00000030: 665f e5d5 5e65 dadf 4979 57c6 11bc 12c6
00000040: 7f06 cdc0 e848 6247 ac0d 11e4 5c87 11a5
00000050: 320c a19a 2c15 43c9 7af0 e2cb e48e a2e7
00000060: ea9e ebc9 6916 81b1 8fe3 1191 52df b25a
00000070: 8828 84fa 2e47 83fc 7959 d5d1 9191 6613
00000080: 28b9 b6e3 5c63 af9b 45c2 319c 0967 7b9a
00000090: 9594 d286 0f5d 28cc 1856 dd6e 133b 2bf3
000000a0: 4305 9e23 a385 6181 4aca 9de8 5257 b5d9
000000b0: c1e2 2e1d 6c60 1f26 f0c1 fffa 017b 0263
000000c0: 936a 599a 284a 6776 9921 e122 c10b e844
000000d0: 5039 b0e4 1b74 cf35 a657 8ee6 c425 6bc7
000000e0: 84eb c389 fcfa a452 932f 4c20 8f8c ab7f
000000f0: 905b 0c1a c325 822c 99ee e24a 1fe2 2b9d

mobilenet_v2_alpha_0.25/conv2d_8/Conv2D i1 [48, 1, 1, 8]
71 25 56 -100 -82 -127 118 58
-97 102 -92 -105 -127 112 58 19
14 -95 -42 65 127 -107 16 -27
-122 -116 -98 16 46 -23 122 -127
73 36 -2 -113 1 -118 83 -127
-79 -127 -49 -101 -3 -122 85 -85
117 112 -67 -95 72 69 58 127
78 -89 40 114 87 -127 -18 101
16 35 -127 -52 -121 -92 -83 -77
-63 -127 69 -84 98 75 -3 0
49 41 4 16 127 -124 87 -86
-127 -111 -12 60 1 -79 -47 -99
-18 85 -126 -22 9 14 1 127
63 25 -83 -127 126 67 -115 66
52 127 -43 45 -23 83 112 41
8 127 1 67 63 -10 39 111
-28 -39 6 -53 116 -109 16 -127
-103 114 86 79 15 32 -63 127
-44 127 50 -120 -34 61 33 -84
-65 -127 -1 49 97 -108 24 -1
-2 -127 81 67 -53 -19 -39 -19
17 75 6 -127 -24 83 -108 85
-40 127 12 -70 -67 -46 35 -116
-127 -69 96 80 -4 91 119 107
-30 -43 -115 118 127 21 8 -99
-114 67 -35 67 -127 29 8 27
127 3 -6 13 -66 -31 -39 -87
-3 16 -85 93 127 -104 39 -38
127 24 60 27 119 90 112 124
-20 127 121 10 67 -54 -115 -47
48 -23 -4 -23 127 16 -24 127
-20 49 23 -33 -55 52 127 76
00000000: 4719 389c ae81 763a 9f66 a497 8170 3a13
00000010: 0ea1 d641 7f95 10e5 868c 9e10 2ee9 7a81
00000020: 4924 fe8f 018a 5381 b181 cf9b fd86 55ab
00000030: 7570 bda1 4845 3a7f 4ea7 2872 5781 ee65
00000040: 1023 81cc 87a4 adb3 c181 45ac 624b fd00
00000050: 3129 0410 7f84 57aa 8191 f43c 01b1 d19d
00000060: ee55 82ea 090e 017f 3f19 ad81 7e43 8d42
00000070: 347f d52d e953 7029 087f 0143 3ff6 276f
00000080: e4d9 06cb 7493 1081 9972 564f 0f20 c17f
00000090: d47f 3288 de3d 21ac bf81 ff31 6194 18ff
000000a0: fe81 5143 cbed d9ed 114b 0681 e853 9455
000000b0: d87f 0cba bdd2 238c 81bb 6050 fc5b 776b
000000c0: e2d5 8d76 7f15 089d 8e43 dd43 811d 081b
000000d0: 7f03 fa0d bee1 d9a9 fd10 ab5d 7f98 27da
000000e0: 7f18 3c1b 775a 707c ec7f 790a 43ca 8dd1
000000f0: 30e9 fce9 7f10 e87f ec31 17df c934 7f4c

mobilenet_v2_alpha_0.25/batch_normalization_13/FusedBatchNormV3;mobilenet_v2_alpha_0.25/depthwise_conv2d_4/depthwise;mobilenet_v2_alpha_0.25/depthwise_conv2d_6/depthwise;mobilenet_v2_alpha_0.25/batch_normalization_19/FusedBatchNormV3 i1 [1, 3, 3, 48]
29 -127 90 40 -55 -124 110 -71
-59 -127 73 91 -116 50 22 -100
-44 -57 43 -84 48 -43 52 -81
-54 -30 -58 34 -64 -54 59 4
-3 96 -96 -30 15 127 98 -46
110 106 91 8 -82 -1 -21 -114
127 -119 -18 86 -91 14 -5 -119
56 -93 127 -118 -116 -127 -52 -52
116 91 -127 65 -98 -117 13 109
96 54 79 6 15 8 -29 7
49 -89 -107 -63 95 107 -108 -101
-8 -2 127 -53 -74 -72 71 54
-9 -37 2 118 -26 -110 100 -103
7 125 35 32 84 9 62 -110
-127 -63 -26 25 -68 38 127 11
-24 -13 -127 20 -40 -112 42 -103
24 -127 96 107 -30 -84 -36 79
-81 92 -52 -27 85 127 -38 -127
55 77 127 127 -13 -67 47 118
37 25 -43 50 1 125 -6 -76
-23 52 -77 16 127 -127 -55 -127
-22 -127 -110 -25 -62 -81 85 -127
125 125 -36 -75 -101 -98 -121 -7
-7 -2 -67 127 102 71 -52 122
-37 -46 -54 -113 127 -100 127 94
-92 -44 43 34 72 28 -127 83
59 4 -98 10 27 -108 31 0
-9 102 121 -123 3 7 -112 12
-127 5 -93 14 -60 -27 -127 78
-30 -10 115 51 65 -73 104 -3
-18 -121 7 -118 78 -96 104 127
33 -116 118 78 7 -124 44 -56
00000000: 1d81 5a28 c984 6eb9 c581 495b 8c32 169c
00000010: d4c7 2bac 30d5 34af cae2 c622 c0ca 3b04
00000020: fd60 a0e2 0f7f 62d2 6e6a 5b08 aeff eb8e
00000030: 7f89 ee56 a50e fb89 38a3 7f8a 8c81 cccc
00000040: 745b 8141 9e8b 0d6d 6036 4f06 0f08 e307
00000050: 31a7 95c1 5f6b 949b f8fe 7fcb b6b8 4736
00000060: f7db 0276 e692 6499 077d 2320 5409 3e92
00000070: 81c1 e619 bc26 7f0b e8f3 8114 d890 2a99
00000080: 1881 606b e2ac dc4f af5c cce5 557f da81
00000090: 374d 7f7f f3bd 2f76 2519 d532 017d fab4
000000a0: e934 b310 7f81 c981 ea81 92e7 c2af 5581
000000b0: 7d7d dcb5 9b9e 87f9 f9fe bd7f 6647 cc7a
000000c0: dbd2 ca8f 7f9c 7f5e a4d4 2b22 481c 8153
000000d0: 3b04 9e0a 1b94 1f00 f766 7985 0307 900c
000000e0: 8105 a30e c4e5 814e e2f6 7333 41b7 68fd
000000f0: ee87 078a 4ea0 687f 218c 764e 0784 2cc8

mobilenet_v2_alpha_0.25/conv2d_9/Conv2D i1 [8, 1, 1, 48]
31 -3 48 -10 10 -79 -106 121
79 -56 -27 29 -126 -33 61 -99
25 116 -30 102 -53 5 18 119
-29 30 89 19 114 21 -123 31
-46 -52 -33 -75 127 -6 -90 74
36 -63 35 -118 29 52 4 -43
-38 81 -117 -16 -117 -21 -1 23
-86 -16 -56 91 -71 82 -91 -123
-27 -111 64 37 8 -87 43 -35
122 -20 107 -81 -99 -52 87 99
99 71 -89 -127 38 -31 -81 -89
64 113 122 -125 -75 24 -40 -95
-42 -78 101 -45 14 38 -111 72
-16 64 69 -87 20 119 -80 71
84 -81 22 11 -24 62 57 -119
123 127 102 -82 19 30 -112 -35
-50 111 -37 114 44 87 -89 55
-48 78 73 -24 77 -73 100 -118
7 -21 -99 106 -46 116 41 107
125 -66 10 122 117 -117 88 -2
24 -112 32 -124 76 -48 -19 -14
39 -7 -90 38 -107 100 -127 123
52 -109 108 66 87 -94 3 51
47 -82 124 51 126 1 68 -35
-58 68 -91 -29 -33 57 38 -52
-19 113 -1 24 114 -115 -13 -83
28 -71 -116 80 13 -45 -101 2
89 -66 -74 55 88 101 -120 -99
9 -64 76 -66 77 81 -127 -47
-96 116 40 39 -36 -80 -3 -100
70 39 54 -6 36 113 30 -31
20 -114 72 14 -92 17 -86 59
00000000: 1ffd 30f6 0ab1 9679 4fc8 e51d 82df 3d9d
00000010: 1974 e266 cb05 1277 e31e 5913 7215 851f
00000020: d2cc dfb5 7ffa a64a 24c1 238a 1d34 04d5
00000030: da51 8bf0 8beb ff17 aaf0 c85b b952 a585
00000040: e591 4025 08a9 2bdd 7aec 6baf 9dcc 5763
00000050: 6347 a781 26e1 afa7 4071 7a83 b518 d8a1
00000060: d6b2 65d3 0e26 9148 f040 45a9 1477 b047
00000070: 54af 160b e83e 3989 7b7f 66ae 131e 90dd
00000080: ce6f db72 2c57 a737 d04e 49e8 4db7 648a
00000090: 07eb 9d6a d274 296b 7dbe 0a7a 758b 58fe
000000a0: 1890 2084 4cd0 edf2 27f9 a626 9564 817b
000000b0: 3493 6c42 57a2 0333 2fae 7c33 7e01 44dd
000000c0: c644 a5e3 df39 26cc ed71 ff18 728d f3ad
000000d0: 1cb9 8c50 0dd3 9b02 59be b637 5865 889d
000000e0: 09c0 4cbe 4d51 81d1 a074 2827 dcb0 fd9c
000000f0: 4627 36fa 2471 1ee1 148e 480e a411 aa3b

mobilenet_v2_alpha_0.25/conv2d_10/Conv2D i1 [48, 1, 1, 8]
-42 -127 -65 -125 -96 -24 35 -5
-47 2 -74 -127 42 -24 123 -37
103 127 -62 -73 40 51 -13 -99
127 120 101 103 -101 -124 -49 -123
-86 16 -71 -52 -53 127 88 -18
107 -126 -122 -89 -127 -95 -16 12
98 38 -114 126 -127 -69 -67 -39
43 -89 32 -127 1 103 -59 76
76 108 66 -62 36 110 -127 -39
106 29 127 -113 114 105 -107 -10
118 127 -34 2 -43 84 -127 -42
98 23 -73 -127 33 12 -79 127
-40 -28 -100 23 87 -127 94 -9
-51 -40 100 -94 -23 127 9 -127
71 -58 91 -58 -35 28 -127 -28
-31 22 -127 11 -23 113 -32 -33
18 127 -64 8 48 -75 -124 63
-65 120 68 47 125 96 -127 -1
-66 119 -27 -44 -75 -127 49 88
26 -48 112 3 -71 127 0 43
82 -50 -47 -25 91 66 115 127
104 20 60 94 -4 -87 127 9
117 -120 -18 -117 60 -88 -95 127
127 61 30 -115 -116 -14 118 -50
-66 127 110 99 66 -21 65 -126
56 33 -77 -22 -127 -85 38 -120
61 69 -63 -127 -42 74 96 123
27 -80 44 -90 -16 98 -127 -19
30 54 -74 127 -42 -4 32 102
-36 35 -107 -27 -127 121 29 125
103 -127 33 -105 -90 65 100 55
42 40 116 -127 -98 -118 -33 -27
00000000: d681 bf83 a0e8 23fb d102 b681 2ae8 7bdb
00000010: 677f c2b7 2833 f39d 7f78 6567 9b84 cf85
00000020: aa10 b9cc cb7f 58ee 6b82 86a7 81a1 f00c
00000030: 6226 8e7e 81bb bdd9 2ba7 2081 0167 c54c
00000040: 4c6c 42c2 246e 81d9 6a1d 7f8f 7269 95f6
00000050: 767f de02 d554 81d6 6217 b781 210c b17f
00000060: d8e4 9c17 5781 5ef7 cdd8 64a2 e97f 0981
00000070: 47c6 5bc6 dd1c 81e4 e116 810b e971 e0df
00000080: 127f c008 30b5 843f bf78 442f 7d60 81ff
00000090: be77 e5d4 b581 3158 1ad0 7003 b97f 002b
000000a0: 52ce d1e7 5b42 737f 6814 3c5e fca9 7f09
000000b0: 7588 ee8b 3ca8 a17f 7f3d 1e8d 8cf2 76ce
000000c0: be7f 6e63 42eb 4182 3821 b3ea 81ab 2688
000000d0: 3d45 c181 d64a 607b 1bb0 2ca6 f062 81ed
000000e0: 1e36 b67f d6fc 2066 dc23 95e5 8179 1d7d
000000f0: 6781 2197 a641 6437 2a28 7481 9e8a dfe5

mobilenet_v2_alpha_0.25/batch_normalization_16/FusedBatchNormV3;mobilenet_v2_alpha_0.25/depthwise_conv2d_5/depthwise;mobilenet_v2_alpha_0.25/depthwise_conv2d_6/depthwise;mobilenet_v2_alpha_0.25/batch_normalization_19/FusedBatchNormV3 i1 [1, 3, 3, 48]
22 127 -51 -14 110 41 -127 -17
60 -70 22 -15 102 33 18 -28
-99 127 -80 -11 26 -55 68 -121
-96 36 -15 -77 -127 59 -62 -61
-46 34 88 41 99 22 67 -96
-89 -127 -127 127 116 -90 127 -121
24 97 127 -45 -126 -28 -29 70
58 -44 -81 111 -55 -81 110 -28
-88 43 10 -65 114 -37 -55 62
-69 -58 -85 -86 111 -92 -99 127
-34 2 56 -92 116 -23 82 -69
127 122 -122 -118 -127 29 25 -20
-9 -63 29 89 75 40 -93 -123
58 50 -62 -127 103 -29 -23 -106
-56 -32 91 -30 7 -46 62 -110
-100 70 59 43 121 -53 127 59
-16 99 -93 -114 -10 -127 8 -127
-47 109 39 91 118 123 -49 -90
127 -19 56 36 -121 -32 48 127
-15 127 -77 74 -118 19 41 127
63 -66 -57 88 12 105 127 -42
-127 -33 58 10 -27 -37 -116 -12
-35 -92 23 -100 -126 118 127 -41
15 -92 -46 -44 73 119 28 23
17 77 57 -127 -106 65 -1 123
-127 -83 -113 76 112 43 11 -16
3 7 0 -39 127 -78 -97 112
-113 30 75 127 67 55 -59 59
-63 -27 -70 22 -74 -40 103 7
57 -100 102 -59 -54 -125 -67 113
-123 -82 -83 36 41 61 57 -60
115 -57 -90 -63 127 -93 -87 -65
00000000: 167f cdf2 6e29 81ef 3cba 16f1 6621 12e4
00000010: 9d7f b0f5 1ac9 4487 a024 f1b3 813b c2c3
00000020: d222 5829 6316 43a0 a781 817f 74a6 7f87
00000030: 1861 7fd3 82e4 e346 3ad4 af6f c9af 6ee4
00000040: a82b 0abf 72db c93e bbc6 abaa 6fa4 9d7f
00000050: de02 38a4 74e9 52bb 7f7a 868a 811d 19ec
00000060: f7c1 1d59 4b28 a385 3a32 c281 67e3 e996
00000070: c8e0 5be2 07d2 3e92 9c46 3b2b 79cb 7f3b
00000080: f063 a38e f681 0881 d16d 275b 767b cfa6
00000090: 7fed 3824 87e0 307f f17f b34a 8a13 297f
000000a0: 3fbe c758 0c69 7fd6 81df 3a0a e5db 8cf4
000000b0: dda4 179c 8276 7fd7 0fa4 d2d4 4977 1c17
000000c0: 114d 3981 9641 ff7b 81ad 8f4c 702b 0bf0
000000d0: 0307 00d9 7fb2 9f70 8f1e 4b7f 4337 c53b
000000e0: c1e5 ba16 b6d8 6707 399c 66c5 ca83 bd71
000000f0: 85ae ad24 293d 39c4 73c7 a6c1 7fa3 a9bf

mobilenet_v2_alpha_0.25/conv2d_11/Conv2D i1 [8, 1, 1, 48]
-33 124 62 48 112 55 44 -66
-78 38 -127 95 45 121 87 -5
-93 -63 -6 -70 22 -75 56 -61
-119 -12 127 82 84 -86 114 -102
68 -13 -10 -95 1 68 34 27
97 95 -66 82 37 23 -17 85
-118 -9 -14 -33 -73 -98 60 -115
116 9 -14 95 42 39 1 77
24 54 79 97 21 -19 -31 -45
-127 79 22 -39 -61 28 -18 -124
-100 36 123 59 -66 -3 3 5
-92 34 -58 -109 87 -37 -87 -68
-40 82 -122 32 -86 12 40 -112
96 -80 -119 78 -127 -13 2 -49
-110 -72 101 -92 119 -121 94 -46
85 107 67 3 -101 -55 86 -112
-66 -121 -35 -65 -93 58 -34 3
-101 40 41 -26 -37 73 -54 -34
-71 -119 -15 9 -72 -25 32 -70
-53 35 49 -44 -68 -37 68 -22
121 -3 96 -41 126 81 127 -14
7 -34 95 -108 48 3 -92 55
50 -81 119 -20 -122 -79 -104 -16
-112 103 -50 -112 2 -38 -26 115
-34 -107 27 125 9 6 -120 -67
88 52 -26 101 61 93 108 121
-100 55 0 -10 61 127 47 -49
117 82 -23 -78 -118 75 122 55
-70 -110 -68 -35 59 -18 88 64
25 120 -90 75 -36 -40 -10 -43
123 -102 30 -59 -109 31 -18 -88
116 -20 100 127 46 102 -44 96
00000000: df7c 3e30 7037 2cbe b226 815f 2d79 57fb
00000010: a3c1 faba 16b5 38c3 89f4 7f52 54aa 729a
00000020: 44f3 f6a1 0144 221b 615f be52 2517 ef55
00000030: 8af7 f2df b79e 3c8d 7409 f25f 2a27 014d
00000040: 1836 4f61 15ed e1d3 814f 16d9 c31c ee84
00000050: 9c24 7b3b befd 0305 a422 c693 57db a9bc
00000060: d852 8620 aa0c 2890 60b0 894e 81f3 02cf
00000070: 92b8 65a4 7787 5ed2 556b 4303 9bc9 5690
00000080: be87 ddbf a33a de03 9b28 29e6 db49 cade
00000090: b989 f109 b8e7 20ba cb23 31d4 bcdb 44ea
000000a0: 79fd 60d7 7e51 7ff2 07de 5f94 3003 a437
000000b0: 32af 77ec 86b1 98f0 9067 ce90 02da e673
000000c0: de95 1b7d 0906 88bd 5834 e665 3d5d 6c79
000000d0: 9c37 00f6 3d7f 2fcf 7552 e9b2 8a4b 7a37
000000e0: ba92 bcdd 3bee 5840 1978 a64b dcd8 f6d5
000000f0: 7b9a 1ec5 931f eea8 74ec 647f 2e66 d460

mobilenet_v2_alpha_0.25/conv2d_12/Conv2D i1 [48, 1, 1, 8]
122 -64 -127 -76 36 67 -45 -36
-102 50 27 51 -39 127 70 -16
-119 99 73 -83 -30 -117 127 118
-33 86 -127 58 24 116 70 52
127 123 114 -119 -116 66 -84 20
91 64 -10 37 -98 7 -127 111
-101 91 -13 35 127 109 88 -15
-75 30 67 -99 78 31 127 -31
116 -110 -35 123 -127 -39 124 113
33 20 26 105 64 78 -40 127
-127 35 -76 -47 -66 -98 -43 -75
-106 116 127 83 6 -34 -51 -76
127 -3 54 -70 88 30 97 44
105 40 -127 -24 -116 109 103 118
-69 127 84 -80 -49 -111 50 -55
-127 -107 -13 39 13 111 73 115
74 -39 -40 127 21 95 88 -14
66 -102 -1 126 127 118 123 47
102 -108 55 -127 -23 -87 2 24
-35 16 -91 1 87 -9 76 -127
50 70 -127 -14 66 -5 -100 -13
75 -122 -108 -127 47 95 76 45
127 27 50 -46 16 36 48 96
84 -127 109 -50 47 7 -123 -44
-47 -62 -127 -29 -121 15 20 50
-127 19 -93 -97 78 -98 0 89
127 -115 -86 -114 96 -78 82 82
-49 -68 124 -48 68 -66 -94 -127
-127 -85 118 -28 -64 112 -104 66
5 65 -122 127 90 21 -34 73
92 112 5 112 -49 89 14 127
18 85 57 51 86 115 33 -127
00000000: 7ac0 81b4 2443 d3dc 9a32 1b33 d97f 46f0
00000010: 8963 49ad e28b 7f76 df56 813a 1874 4634
00000020: 7f7b 7289 8c42 ac14 5b40 f625 9e07 816f
00000030: 9b5b f323 7f6d 58f1 b51e 439d 4e1f 7fe1
00000040: 7492 dd7b 81d9 7c71 2114 1a69 404e d87f
00000050: 8123 b4d1 be9e d5b5 9674 7f53 06de cdb4
00000060: 7ffd 36ba 581e 612c 6928 81e8 8c6d 6776
00000070: bb7f 54b0 cf91 32c9 8195 f327 0d6f 4973
00000080: 4ad9 d87f 155f 58f2 429a ff7e 7f76 7b2f
00000090: 6694 3781 e9a9 0218 dd10 a501 57f7 4c81
000000a0: 3246 81f2 42fb 9cf3 4b86 9481 2f5f 4c2d
000000b0: 7f1b 32d2 1024 3060 5481 6dce 2f07 85d4
000000c0: d1c2 81e3 870f 1432 8113 a39f 4e9e 0059
000000d0: 7f8d aa8e 60b2 5252 cfbc 7cd0 44be a281
000000e0: 81ab 76e4 c070 9842 0541 867f 5a15 de49
000000f0: 5c70 0570 cf59 0e7f 1255 3933 5673 2181

mobilenet_v2_alpha_0.25/batch_normalization_19/FusedBatchNormV3;mobilenet_v2_alpha_0.25/depthwise_conv2d_6/depthwise12 i1 [1, 3, 3, 48]
95 27 107 -54 -112 -72 76 127
32 -69 127 63 9 -56 -112 -33
-45 63 -118 -47 66 -90 -21 85
45 117 -68 -95 -50 94 -114 -76
87 -103 116 -115 -22 -109 52 60
89 101 -120 -51 80 -43 -62 -114
8 -84 -86 19 115 56 127 89
-74 -50 66 -65 127 -56 -116 89
-126 -47 -75 80 -97 -40 -127 -36
99 11 68 9 108 -68 -50 107
29 -64 59 -127 -29 127 -16 -48
51 -121 -27 17 127 -60 78 127
-85 -102 -91 44 -19 -27 102 67
30 -33 13 -102 29 -105 97 -18
-127 119 84 -127 -115 70 -40 -35
-38 127 127 -93 -15 -33 116 16
58 85 -102 2 17 -36 127 -85
101 -10 87 -83 -83 127 -18 70
-46 -103 -127 -22 66 53 -41 -28
17 -126 96 -127 -46 79 -13 -4
-51 33 117 -12 -127 -127 -60 -67
127 -48 91 -27 -83 28 106 -8
95 35 -1 -107 69 -63 45 -51
44 69 88 89 43 11 -118 -35
-115 9 25 -69 -56 -90 -119 62
69 61 -43 85 5 52 -84 55
23 45 -127 51 70 -121 82 -106
68 -5 -3 -97 -60 90 -60 -24
62 72 91 -43 -29 14 -119 127
127 19 3 120 54 -121 -10 76
127 59 94 -125 32 -37 -54 72
-127 -127 78 112 15 127 -5 6
00000000: 5f1b 6bca 90b8 4c7f 20bb 7f3f 09c8 90df
00000010: d33f 8ad1 42a6 eb55 2d75 bca1 ce5e 8eb4
00000020: 5799 748d ea93 343c 5965 88cd 50d5 c28e
00000030: 08ac aa13 7338 7f59 b6ce 42bf 7fc8 8c59
00000040: 82d1 b550 9fd8 81dc 630b 4409 6cbc ce6b
00000050: 1dc0 3b81 e37f f0d0 3387 e511 7fc4 4e7f
00000060: ab9a a52c ede5 6643 1edf 0d9a 1d97 61ee
00000070: 8177 5481 8d46 d8dd da7f 7fa3 f1df 7410
00000080: 3a55 9a02 11dc 7fab 65f6 57ad ad7f ee46
00000090: d299 81ea 4235 d7e4 1182 6081 d24f f3fc
000000a0: cd21 75f4 8181 c4bd 7fd0 5be5 ad1c 6af8
000000b0: 5f23 ff95 45c1 2dcd 2c45 5859 2b0b 8add
000000c0: 8d09 19bb c8a6 893e 453d d555 0534 ac37
000000d0: 172d 8133 4687 5296 44fb fd9f c45a c4e8
000000e0: 3e48 5bd5 e30e 897f 7f13 0378 3687 f64c
000000f0: 7f3b 5e83 20db ca48 8181 4e70 0f7f fb06

mobilenet_v2_alpha_0.25/conv2d_13/Conv2D i1 [16, 1, 1, 48]
-58 -19 125 58 2 35 45 -75
44 67 39 66 -89 -28 95 44
-76 27 73 -1 -112 122 41 -127
-26 52 63 -24 -46 57 -72 109
-68 -43 -87 42 -49 14 -22 33
-58 -73 99 61 -78 -4 -5 91
12 -96 30 32 -103 88 121 -103
47 70 100 88 55 70 -96 -18
-77 69 -99 42 3 44 96 50
-69 27 57 -68 -14 39 -91 119
109 84 -99 -5 112 69 -9 -121
-127 -75 104 100 79 84 55 10
-7 -1 -75 120 -86 108 29 125
96 65 -68 -80 51 66 -51 112
98 -13 -119 -100 -55 114 125 68
-54 -60 -61 48 119 84 -9 -42
21 -114 127 -80 -29 72 114 45
-122 -14 29 33 37 -103 59 -80
-64 -23 83 50 71 -14 78 -103
-19 27 -92 -88 116 -73 37 112
-100 -7 -53 108 11 -82 -94 26
105 49 68 107 -2 -103 -104 34
-105 -23 -127 14 -30 121 -63 -25
75 85 74 -16 -79 2 -86 3
112 71 -78 -63 -40 47 -19 -6
-98 54 -16 76 -5 -1 -94 -49
97 -75 57 47 -67 93 -56 100
74 78 -127 115 107 -120 66 24
-10 4 60 -42 87 -109 -94 43
47 80 121 -43 -58 101 -12 -68
71 102 24 -49 -41 53 23 -89
-95 -41 -127 -108 -92 2 7 32
00000000: c6ed 7d3a 0223 2db5 2c43 2742 a7e4 5f2c
00000010: b41b 49ff 907a 2981 e634 3fe8 d239 b86d
00000020: bcd5 a92a cf0e ea21 c6b7 633d b2fc fb5b
00000030: 0ca0 1e20 9958 7999 2f46 6458 3746 a0ee
00000040: b345 9d2a 032c 6032 bb1b 39bc f227 a577
00000050: 6d54 9dfb 7045 f787 81b5 6864 4f54 370a
00000060: f9ff b578 aa6c 1d7d 6041 bcb0 3342 cd70
00000070: 62f3 899c c972 7d44 cac4 c330 7754 f7d6
00000080: 158e 7fb0 e348 722d 86f2 1d21 2599 3bb0
00000090: c0e9 5332 47f2 4e99 ed1b a4a8 74b7 2570
000000a0: 9cf9 cb6c 0bae a21a 6931 446b fe99 9822
000000b0: 97e9 810e e279 c1e7 4b55 4af0 b102 aa03
000000c0: 7047 b2c1 d82f edfa 9e36 f04c fbff a2cf
000000d0: 61b5 392f bd5d c864 4a4e 8173 6b88 4218
000000e0: f604 3cd6 5793 a22b 2f50 79d5 c665 f4bc
000000f0: 4766 18cf d735 17a7 a1d7 8194 a402 0720

mobilenet_v2_alpha_0.25/conv2d_14/Conv2D i1 [96, 1, 1, 16]
87 37 74 46 -127 -27 119 -77
49 -117 52 -43 -63 -58 122 35
-122 76 -97 92 -35 108 72 -122
-53 127 43 88 -64 5 -72 -24
-36 91 -97 127 -22 -44 -21 -60
-8 -24 49 -119 -1 43 -13 -15
-3 -125 127 13 -1 -34 -19 17
-52 107 24 106 -68 62 95 -40
29 -127 113 89 -44 107 39 127
118 92 19 74 -4 -20 67 -95
116 14 125 59 53 66 -124 -70
127 44 -15 11 29 71 -64 -32
3 -93 -86 127 -51 -8 13 -95
-107 -68 107 -27 82 116 84 -34
-121 10 53 48 19 -82 -117 8
1 -70 -25 25 -127 -40 27 26
26 84 114 -12 -10 -95 7 0
-127 40 -35 118 -92 22 -63 16
-16 76 -19 127 92 -6 -16 120
33 -86 -118 -55 -53 -53 40 -1
-65 37 -93 60 82 42 6 -52
27 30 102 -23 -110 -127 118 61
4 -2 -117 87 -43 76 -107 127
-40 -77 -104 -72 101 38 -92 93
-65 -61 -127 105 41 23 -97 53
108 57 35 26 112 -2 -36 -102
11 105 -67 53 -127 93 -106 80
-14 88 31 -105 -118 -76 -87 14
64 -39 102 110 -56 64 91 107
-7 80 126 -96 -127 -89 -120 43
103 33 75 127 -24 -13 -81 -49
90 18 -82 -104 -26 0 -48 72
00000000: 5725 4a2e 81e5 77b3 318b 34d5 c1c6 7a23
00000010: 864c 9f5c dd6c 4886 cb7f 2b58 c005 b8e8
00000020: dc5b 9f7f ead4 ebc4 f8e8 3189 ff2b f3f1
00000030: fd83 7f0d ffde ed11 cc6b 186a bc3e 5fd8
00000040: 1d81 7159 d46b 277f 765c 134a fcec 43a1
00000050: 740e 7d3b 3542 84ba 7f2c f10b 1d47 c0e0
00000060: 03a3 aa7f cdf8 0da1 95bc 6be5 5274 54de
00000070: 870a 3530 13ae 8b08 01ba e719 81d8 1b1a
00000080: 1a54 72f4 f6a1 0700 8128 dd76 a416 c110
00000090: f04c ed7f 5cfa f078 21aa 8ac9 cbcb 28ff
000000a0: bf25 a33c 522a 06cc 1b1e 66e9 9281 763d
000000b0: 04fe 8b57 d54c 957f d8b3 98b8 6526 a45d
000000c0: bfc3 8169 2917 9f35 6c39 231a 70fe dc9a
000000d0: 0b69 bd35 815d 9650 f258 1f97 8ab4 a90e
000000e0: 40d9 666e c840 5b6b f950 7ea0 81a7 882b
000000f0: 6721 4b7f e8f3 afcf 5a12 ae98 e600 d048

mobilenet_v2_alpha_0.25/batch_normalization_22/FusedBatchNormV3;mobilenet_v2_alpha_0.25/depthwise_conv2d_7/depthwise;mobilenet_v2_alpha_0.25/depthwise_conv2d_10/depthwise;mobilenet_v2_alpha_0.25/batch_normalization_31/FusedBatchNormV3 i1 [1, 3, 3, 96]
10 57 112 -17 127 -90 87 112
-67 110 20 29 -75 -83 -112 -91
-46 33 -113 36 -18 -21 46 -47
51 81 -50 -30 -57 56 -127 19
41 88 94 -56 -91 127 120 -31
-105 -66 91 -109 105 14 -35 43
-127 -12 -66 121 -83 -81 -83 14
-127 -31 22 53 85 -83 -12 104
-2 55 98 118 102 -1 127 52
105 102 -96 32 -58 127 118 -8
-28 79 -75 59 53 -10 -127 -98
-78 89 -124 -127 93 -127 -52 91
-38 64 -71 3 -3 -112 -84 -103
3 113 -35 98 102 -127 -127 -21
106 10 -67 -52 96 -117 119 -33
-44 -90 47 93 55 127 62 -123
-61 7 -15 -40 71 -72 126 -41
32 -64 -16 -88 97 -127 -92 -76
-61 -82 -122 71 -102 21 68 55
-28 19 -69 -1 47 80 47 17
-91 -33 22 17 127 12 116 -32
-59 -86 -127 75 52 -37 -49 127
9 71 85 -93 -59 -4 -90 -127
127 -99 45 33 55 0 -109 51
-69 90 -8 -81 -111 127 -40 18
-18 127 -59 -63 -52 71 3 -60
127 127 127 -88 108 88 -2 -114
-99 -117 -3 127 -52 -52 3 -38
62 -99 33 80 -127 -77 -8 -127
53 80 -102 -127 127 105 -59 -23
5 -91 57 -127 11 -96 -99 -109
-19 53 127 111 54 -55 70 -54
00000000: 0a39 70ef 7fa6 5770 bd6e 141d b5ad 90a5
00000010: d221 8f24 eeeb 2ed1 3351 cee2 c738 8113
00000020: 2958 5ec8 a57f 78e1 97be 5b93 690e dd2b
00000030: 81f4 be79 adaf ad0e 81e1 1635 55ad f468
00000040: fe37 6276 66ff 7f34 6966 a020 c67f 76f8
00000050: e44f b53b 35f6 819e b259 8481 5d81 cc5b
00000060: da40 b903 fd90 ac99 0371 dd62 6681 81eb
00000070: 6a0a bdcc 608b 77df d4a6 2f5d 377f 3e85
00000080: c307 f1d8 47b8 7ed7 20c0 f0a8 6181 a4b4
00000090: c3ae 8647 9a15 4437 e413 bbff 2f50 2f11
000000a0: a5df 1611 7f0c 74e0 c5aa 814b 34db cf7f
000000b0: 0947 55a3 c5fc a681 7f9d 2d21 3700 9333
000000c0: bb5a f8af 917f d812 ee7f c5c1 cc47 03c4
000000d0: 7f7f 7fa8 6c58 fe8e 9d8b fd7f cccc 03da
000000e0: 3e9d 2150 81b3 f881 3550 9a81 7f69 c5e9
000000f0: 05a5 3981 0ba0 9d93 ed35 7f6f 36c9 46ca

mobilenet_v2_alpha_0.25/conv2d_15/Conv2D i1 [16, 1, 1, 96]
95 -76 41 36 -88 -12 -50 -9
-113 -78 42 -98 -99 78 -7 -47
10 66 30 -14 59 -15 122 -31
-29 -41 -52 -34 15 -76 126 99
90 -77 62 -90 123 25 125 -111
58 89 64 44 37 55 14 67
31 122 122 58 -54 11 -55 -20
-109 -66 20 -50 15 6 -74 92
113 -13 31 11 57 115 66 -18
-19 123 -106 -118 -54 94 -122 -56
83 16 57 99 127 42 -35 -36
107 -23 98 67 -78 44 28 60
-15 -126 5 -38 28 51 -10 -57
-48 45 -123 87 -10 74 -28 -112
-14 78 122 117 42 29 89 -91
-36 89 123 27 46 76 -2 -53
124 -83 24 -63 43 -112 -113 -56
-58 37 61 -23 -39 83 85 112
111 52 -76 -89 79 -27 -78 -56
-14 1 -76 -108 14 54 45 -35
88 57 1 33 8 38 73 -88
117 77 122 -71 118 -59 -9 102
-2 93 -10 54 -1 39 114 48
120 -120 39 127 -98 -22 -21 11
100 -83 68 -49 -49 -72 -35 -86
125 64 95 -87 -79 -3 -97 -65
55 20 -25 -47 -20 71 89 127
-80 -39 86 68 -3 25 40 -75
127 -64 119 12 114 -1 -27 -89
97 20 -45 -90 -73 111 -123 112
103 100 -31 -28 59 -101 66 121
-51 -56 -14 1 2 -21 34 108
00000000: 5fb4 2924 a8f4 cef7 8fb2 2a9e 9d4e f9d1
00000010: 0a42 1ef2 3bf1 7ae1 e3d7 ccde 0fb4 7e63
00000020: 5ab3 3ea6 7b19 7d91 3a59 402c 2537 0e43
00000030: 1f7a 7a3a ca0b c9ec 93be 14ce 0f06 b65c
00000040: 71f3 1f0b 3973 42ee ed7b 968a ca5e 86c8
00000050: 5310 3963 7f2a dddc 6be9 6243 b22c 1c3c
00000060: f182 05da 1c33 f6c7 d02d 8557 f64a e490
00000070: f24e 7a75 2a1d 59a5 dc59 7b1b 2e4c fecb
00000080: 7cad 18c1 2b90 8fc8 c625 3de9 d953 5570
00000090: 6f34 b4a7 4fe5 b2c8 f201 b494 0e36 2ddd
000000a0: 5839 0121 0826 49a8 754d 7ab9 76c5 f766
000000b0: fe5d f636 ff27 7230 7888 277f 9eea eb0b
000000c0: 64ad 44cf cfb8 ddaa 7d40 5fa9 b1fd 9fbf
000000d0: 3714 e7d1 ec47 597f b0d9 5644 fd19 28b5
000000e0: 7fc0 770c 72ff e5a7 6114 d3a6 b76f 8570
000000f0: 6764 e1e4 3b9b 4279 cdc8 f201 02eb 226c

mobilenet_v2_alpha_0.25/conv2d_16/Conv2D i1 [96, 1, 1, 16]
-9 -85 40 -66 120 -23 38 -127
49 102 -83 100 -61 17 32 61
-115 19 -107 -59 44 105 -72 127
19 72 114 49 -2 -90 -12 44
47 -18 -20 -33 33 -23 -28 125
-37 54 67 -103 119 117 -33 127
-17 -88 50 -38 66 43 -113 91
-29 103 4 91 -32 36 -127 -18
-89 -127 15 86 -107 123 92 0
-70 -119 125 119 29 -92 36 70
-124 63 109 52 14 102 72 -37
4 41 -65 39 -91 25 127 -11
-24 -18 63 -94 109 33 99 -116
58 23 -127 -83 78 -104 48 -60
-77 -91 -69 114 103 19 110 127
29 18 79 -32 -27 81 -72 -37
-43 7 -53 46 19 -91 45 28
-27 -58 25 55 124 8 127 43
-35 -43 -127 32 -70 112 -83 -82
46 -32 125 -111 110 36 32 -86
84 -53 -76 55 -14 -64 111 84
9 44 -20 50 -127 53 -35 -31
-39 -13 66 -39 127 21 37 -71
112 33 -44 102 -22 26 124 96
-21 -41 -61 67 0 66 -99 -68
-51 -93 9 -43 94 -30 -127 -52
90 -44 -127 -97 6 15 25 112
-17 -26 -40 -118 -25 68 10 -69
-1 90 127 -101 -96 -11 -108 -29
44 29 45 -5 -50 -110 11 125
88 -81 -110 118 47 126 121 -37
-92 35 -127 96 126 17 122 9
00000000: f7ab 28be 78e9 2681 3166 ad64 c311 203d
00000010: 8d13 95c5 2c69 b87f 1348 7231 fea6 f42c
00000020: 2fee ecdf 21e9 e47d db36 4399 7775 df7f
00000030: efa8 32da 422b 8f5b e367 045b e024 81ee
00000040: a781 0f56 957b 5c00 ba89 7d77 1da4 2446
00000050: 843f 6d34 0e66 48db 0429 bf27 a519 7ff5
00000060: e8ee 3fa2 6d21 638c 3a17 81ad 4e98 30c4
00000070: b3a5 bb72 6713 6e7f 1d12 4fe0 e551 b8db
00000080: d507 cb2e 13a5 2d1c e5c6 1937 7c08 7f2b
00000090: ddd5 8120 ba70 adae 2ee0 7d91 6e24 20aa
000000a0: 54cb b437 f2c0 6f54 092c ec32 8135 dde1
000000b0: d9f3 42d9 7f15 25b9 7021 d466 ea1a 7c60
000000c0: ebd7 c343 0042 9dbc cda3 09d5 5ee2 81cc
000000d0: 5ad4 819f 060f 1970 efe6 d88a e744 0abb
000000e0: ff5a 7f9b a0f5 94e3 2c1d 2dfb ce92 0b7d
000000f0: 58af 9276 2f7e 79db a423 8160 7e11 7a09

mobilenet_v2_alpha_0.25/batch_normalization_25/FusedBatchNormV3;mobilenet_v2_alpha_0.25/depthwise_conv2d_8/depthwise;mobilenet_v2_alpha_0.25/depthwise_conv2d_10/depthwise;mobilenet_v2_alpha_0.25/batch_normalization_31/FusedBatchNormV3 i1 [1, 3, 3, 96]
51 88 94 102 48 49 28 95
72 124 -78 81 61 -26 107 -95
-2 -73 -94 68 -72 79 116 21
-34 -115 51 127 -110 114 -98 81
127 24 -15 108 -89 -10 71 14
-127 29 56 92 -78 -90 -20 -57
112 -124 -112 -62 67 127 100 -54
-127 90 45 77 13 100 97 127
7 98 -98 34 23 113 40 17
-60 -102 100 116 18 26 -67 85
63 127 -51 76 -77 -127 -123 32
116 -35 71 -49 44 45 -58 60
127 -106 51 111 16 -21 -115 -107
64 32 -54 -54 23 13 51 -127
-41 -127 37 22 -127 -115 -127 18
-3 -67 77 83 -75 79 -20 -81
-116 -126 -127 -50 77 84 -93 107
-119 -110 127 127 -65 107 127 -45
-93 -85 60 -127 58 27 -55 31
-122 45 -30 -118 121 63 -110 33
91 127 -13 -92 -99 67 50 -27
27 -122 18 24 52 127 -54 94
42 -43 -15 -113 24 -95 -39 -12
-37 49 -3 -121 -127 -92 90 114
25 -10 78 5 89 -127 -74 -95
-81 31 8 108 -74 -62 64 126
-19 39 66 -127 5 -119 64 127
-127 -39 127 -39 -95 -24 72 97
-17 19 -54 18 -18 -12 101 56
-60 -13 -28 5 127 -115 88 102
19 -127 127 122 84 -92 33 -97
-101 127 107 -38 127 -73 -111 -117
00000000: 3358 5e66 3031 1c5f 487c b251 3de6 6ba1
00000010: feb7 a244 b84f 7415 de8d 337f 9272 9e51
00000020: 7f18 f16c a7f6 470e 811d 385c b2a6 ecc7
00000030: 7084 90c2 437f 64ca 815a 2d4d 0d64 617f
00000040: 0762 9e22 1771 2811 c49a 6474 121a bd55
00000050: 3f7f cd4c b381 8520 74dd 47cf 2c2d c63c
00000060: 7f96 336f 10eb 8d95 4020 caca 170d 3381
00000070: d781 2516 818d 8112 fdbd 4d53 b54f ecaf
00000080: 8c82 81ce 4d54 a36b 8992 7f7f bf6b 7fd3
00000090: a3ab 3c81 3a1b c91f 862d e28a 793f 9221
000000a0: 5b7f f3a4 9d43 32e5 1b86 1218 347f ca5e
000000b0: 2ad5 f18f 18a1 d9f4 db31 fd87 81a4 5a72
000000c0: 19f6 4e05 5981 b6a1 af1f 086c b6c2 407e
000000d0: ed27 4281 0589 407f 81d9 7fd9 a1e8 4861
000000e0: ef13 ca12 eef4 6538 c4f3 e405 7f8d 5866
000000f0: 1381 7f7a 54a4 219f 9b7f 6bda 7fb7 918b

mobilenet_v2_alpha_0.25/conv2d_17/Conv2D i1 [16, 1, 1, 96]
113 109 114 107 -63 10 68 26
58 107 -21 -60 116 93 108 -95
-50 -74 -1 44 -27 19 72 67
-105 84 7 -38 -59 120 69 -69
121 -43 44 117 108 -43 -115 -27
-4 114 -40 4 41 102 -110 72
124 -35 -29 -85 41 -53 32 87
61 18 -91 -109 102 -93 -126 8
-58 67 -120 -55 -90 118 -79 -22
-103 40 -122 -37 27 -86 53 -35
-61 33 3 77 -16 -107 -77 16
-75 63 72 13 -27 -21 -71 -127
-27 127 15 39 -106 74 -116 109
113 -104 -28 -16 -15 -17 41 -77
100 -29 -103 -61 -36 -111 103 103
109 111 -122 3 -39 -95 -19 -89
106 34 31 -19 -7 -36 -99 25
-102 78 51 -120 60 -121 97 -122
23 -103 -9 -51 -48 78 109 53
70 64 86 -2 -34 -125 -35 -87
26 47 -45 4 119 86 127 -83
32 -105 80 -72 124 -63 -82 -61
56 -7 -87 58 -111 -96 -125 -100
-54 51 -91 4 -18 14 81 -120
50 37 -11 -33 -58 80 -105 -1
-12 47 -110 -35 70 20 33 81
83 -83 -27 -81 117 56 94 7
-23 -11 -91 -53 71 -50 119 32
-38 -113 101 76 107 91 117 47
112 -106 8 21 13 -99 -89 18
87 99 -114 -119 -81 26 39 31
-88 77 -116 -70 38 127 12 80
00000000: 716d 726b c10a 441a 3a6b ebc4 745d 6ca1
00000010: ceb6 ff2c e513 4843 9754 07da c578 45bb
00000020: 79d5 2c75 6cd5 8de5 fc72 d804 2966 9248
00000030: 7cdd e3ab 29cb 2057 3d12 a593 66a3 8208
00000040: c643 88c9 a676 b1ea 9928 86db 1baa 35dd
00000050: c321 034d f095 b310 b53f 480d e5eb b981
00000060: e57f 0f27 964a 8c6d 7198 e4f0 f1ef 29b3
00000070: 64e3 99c3 dc91 6767 6d6f 8603 d9a1 eda7
00000080: 6a22 1fed f9dc 9d19 9a4e 3388 3c87 6186
00000090: 1799 f7cd d04e 6d35 4640 56fe de83 dda9
000000a0: 1a2f d304 7756 7fad 2097 50b8 7cc1 aec3
000000b0: 38f9 a93a 91a0 839c ca33 a504 ee0e 5188
000000c0: 3225 f5df c650 97ff f42f 92dd 4614 2151
000000d0: 53ad e5af 7538 5e07 e9f5 a5cb 47ce 7720
000000e0: da8f 654c 6b5b 752f 7096 0815 0d9d a712
000000f0: 5763 8e89 af1a 271f a84d 8cba 267f 0c50

mobilenet_v2_alpha_0.25/conv2d_18/Conv2D i1 [96, 1, 1, 16]
-91 115 -124 22 92 -98 -100 98
8 39 127 -7 19 -66 -35 -37
-89 69 102 -61 -28 124 89 -65
-127 3 -12 102 -18 -36 -25 39
32 119 -44 90 51 -39 -36 99
69 52 46 88 127 -49 58 -90
55 -117 -60 -31 -100 119 127 99
-75 97 -101 -19 -5 -115 71 66
-64 4 79 -127 -30 -111 -120 -75
-125 -89 25 -84 70 61 -18 -3
59 14 40 -35 95 89 109 66
-127 47 -81 -75 -95 44 115 -48
59 -28 -22 84 115 -110 -78 66
-119 50 60 1 -31 121 15 127
127 91 -83 -37 -17 -64 111 -103
17 -44 112 -64 -108 102 29 -102
-48 -15 8 20 91 21 27 114
127 -67 -114 15 99 -39 116 -114
100 96 -127 -78 27 109 65 -86
76 120 6 -118 89 26 -22 111
-106 -25 -52 -7 86 -29 -66 -127
60 112 70 -5 61 5 -40 -9
-51 -76 -49 90 56 -74 104 -127
2 109 -12 -122 21 25 -30 87
62 -24 103 -107 -98 -113 27 -103
13 -46 118 -20 -56 127 -75 -24
19 -27 26 -70 -107 -37 -116 51
113 -37 -127 81 -8 119 21 6
71 22 31 -65 52 -57 -127 121
-85 122 52 -66 25 -7 4 62
61 -43 -22 -82 43 -56 27 -96
121 16 36 -22 124 -55 127 29
00000000: a573 8416 5c9e 9c62 0827 7ff9 13be dddb
00000010: a745 66c3 e47c 59bf 8103 f466 eedc e727
00000020: 2077 d45a 33d9 dc63 4534 2e58 7fcf 3aa6
00000030: 378b c4e1 9c77 7f63 b561 9bed fb8d 4742
00000040: c004 4f81 e291 88b5 83a7 19ac 463d eefd
00000050: 3b0e 28dd 5f59 6d42 812f afb5 a12c 73d0
00000060: 3be4 ea54 7392 b242 8932 3c01 e179 0f7f
00000070: 7f5b addb efc0 6f99 11d4 70c0 9466 1d9a
00000080: d0f1 0814 5b15 1b72 7fbd 8e0f 63d9 748e
00000090: 6460 81b2 1b6d 41aa 4c78 068a 591a ea6f
000000a0: 96e7 ccf9 56e3 be81 3c70 46fb 3d05 d8f7
000000b0: cdb4 cf5a 38b6 6881 026d f486 1519 e257
000000c0: 3ee8 6795 9e8f 1b99 0dd2 76ec c87f b5e8
000000d0: 13e5 1aba 95db 8c33 71db 8151 f877 1506
000000e0: 4716 1fbf 34c7 8179 ab7a 34be 19f9 043e
000000f0: 3dd5 eaae 2bc8 1ba0 7910 24ea 7cc9 7f1d

mobilenet_v2_alpha_0.25/batch_normalization_28/FusedBatchNormV3;mobilenet_v2_alpha_0.25/depthwise_conv2d_9/depthwise;mobilenet_v2_alpha_0.25/depthwise_conv2d_10/depthwise;mobilenet_v2_alpha_0.25/batch_normalization_31/FusedBatchNormV3 i1 [1, 3, 3, 96]
75 -48 -85 73 -26 -47 22 44
74 100 79 98 106 -85 5 76
38 -69 -85 25 17 95 -27 -30
-127 -63 5 6 18 -99 -16 110
19 35 -5 -48 81 107 39 -26
78 -51 72 -114 -51 63 50 70
73 125 -52 -108 -127 -92 127 -30
-24 -49 93 127 -122 -120 21 120
-81 65 43 -46 -38 -76 -116 -39
-58 -49 -127 52 101 -121 -122 -52
-67 42 -55 -127 102 -77 8 74
21 27 75 -13 127 35 -75 59
93 -14 -67 -50 89 -78 -25 126
82 95 -127 117 -74 127 127 -89
-102 -54 -51 49 -30 -9 -22 -127
122 104 40 -52 -48 8 99 109
-51 44 34 -102 -103 -90 77 72
-124 -49 -60 -41 5 -111 -101 52
-116 15 -13 -116 27 54 9 58
-73 89 -9 -38 45 -93 -127 -32
77 -46 32 -108 48 -21 -127 -120
27 67 -113 -52 127 -15 84 -13
127 -11 -127 -47 8 116 -18 -76
127 -123 -60 -127 73 1 103 11
-127 -12 97 58 -16 -62 -91 -46
68 21 -18 103 80 -104 38 25
118 103 66 35 -1 -115 10 21
44 -110 109 -27 -68 27 -116 127
115 -127 -113 -127 -127 127 -96 116
-61 127 -31 -25 110 -66 127 -24
24 -14 -52 2 42 -110 90 -127
114 -70 -3 -102 97 -6 -13 52
00000000: 4bd0 ab49 e6d1 162c 4a64 4f62 6aab 054c
00000010: 26bb ab19 115f e5e2 81c1 0506 129d f06e
00000020: 1323 fbd0 516b 27e6 4ecd 488e cd3f 3246
00000030: 497d cc94 81a4 7fe2 e8cf 5d7f 8688 1578
00000040: af41 2bd2 dab4 8cd9 c6cf 8134 6587 86cc
00000050: bd2a c981 66b3 084a 151b 4bf3 7f23 b53b
00000060: 5df2 bdce 59b2 e77e 525f 8175 b67f 7fa7
00000070: 9aca cd31 e2f7 ea81 7a68 28cc d008 636d
00000080: cd2c 229a 99a6 4d48 84cf c4d7 0591 9b34
00000090: 8c0f f38c 1b36 093a b759 f7da 2da3 81e0
000000a0: 4dd2 2094 30eb 8188 1b43 8fcc 7ff1 54f3
000000b0: 7ff5 81d1 0874 eeb4 7f85 c481 4901 670b
000000c0: 81f4 613a f0c2 a5d2 4415 ee67 5098 2619
000000d0: 7667 4223 ff8d 0a15 2c92 6de5 bc1b 8c7f
000000e0: 7381 8f81 817f a074 c37f e1e7 6ebe 7fe8
000000f0: 18f2 cc02 2a92 5a81 72ba fd9a 61fa f334

mobilenet_v2_alpha_0.25/conv2d_19/Conv2D i1 [16, 1, 1, 96]
-17 89 -34 -50 43 -60 -49 48
-70 3 -91 22 82 61 17 62
60 -4 13 80 -61 97 -69 -101
-82 -106 -89 116 28 47 -37 -92
-10 -75 14 125 75 -75 -40 106
67 -75 -38 -121 44 44 -66 23
-95 75 -36 107 -108 -14 15 125
42 18 -35 65 10 65 -79 76
-13 34 53 -76 -41 101 -95 42
86 61 -30 -66 99 86 23 -74
96 104 90 -47 6 -101 101 -35
-2 -11 127 -28 78 -123 -78 43
75 89 -12 99 36 -46 -111 -54
19 127 -9 105 -69 81 -103 -88
58 92 83 -58 -122 104 64 93
-36 66 -114 -102 83 53 -32 -81
25 78 -11 -15 -65 43 -65 60
-4 -112 62 46 16 81 -125 -124
58 -117 -102 74 -34 46 -127 10
-55 -28 -2 -86 47 -116 3 99
-121 28 91 -116 107 -116 -2 -15
34 -115 72 -116 71 -21 -111 109
20 13 33 113 -111 -93 -36 89
22 -116 127 48 -74 -93 -65 102
-124 69 42 -50 -29 75 112 109
83 68 -72 26 119 -20 -70 20
24 -9 -44 86 4 77 77 -49
24 62 -112 82 -91 -7 76 -25
-90 93 -116 -22 9 -17 47 79
-47 54 18 82 -94 97 24 44
-91 63 10 54 -52 -78 -92 126
-66 -64 44 -77 127 -114 -82 122
00000000: ef59 dece 2bc4 cf30 ba03 a516 523d 113e
00000010: 3cfc 0d50 c361 bb9b ae96 a774 1c2f dba4
00000020: f6b5 0e7d 4bb5 d86a 43b5 da87 2c2c be17
00000030: a14b dc6b 94f2 0f7d 2a12 dd41 0a41 b14c
00000040: f322 35b4 d765 a12a 563d e2be 6356 17b6
00000050: 6068 5ad1 069b 65dd fef5 7fe4 4e85 b22b
00000060: 4b59 f463 24d2 91ca 137f f769 bb51 99a8
00000070: 3a5c 53c6 8668 405d dc42 8e9a 5335 e0af
00000080: 194e f5f1 bf2b bf3c fc90 3e2e 1051 8384
00000090: 3a8b 9a4a de2e 810a c9e4 feaa 2f8c 0363
000000a0: 871c 5b8c 6b8c fef1 228d 488c 47eb 916d
000000b0: 140d 2171 91a3 dc59 168c 7f30 b6a3 bf66
000000c0: 8445 2ace e34b 706d 5344 b81a 77ec ba14
000000d0: 18f7 d456 044d 4dcf 183e 9052 a5f9 4ce7
000000e0: a65d 8cea 09ef 2f4f d136 1252 a261 182c
000000f0: a53f 0a36 ccb2 a47e bec0 2cb3 7f8e ae7a
